…
Epoch-200 0.5427  0.6671  0.7750  0.8599
0.4902467727661133
Epoch-400 0.5620  0.6929  0.7880  0.8612
0.3308877944946289
Epoch-600 0.5748  0.6960  0.7934  0.8680
0.4622664451599121
Epoch-200 0.5427  0.6671  0.7750  0.8599
0.3702521324157715
Epoch-800 0.5717  0.6914  0.7910  0.8702
0.5070743560791016
Epoch-400 0.5620  0.6929  0.7880  0.8612
0.4118785858154297
Epoch-1000 0.5668  0.6857  0.7883  0.8626
0.44485020637512207
Epoch-600 0.5748  0.6960  0.7934  0.8680
0.5574955940246582
Epoch-800 0.5717  0.6914  0.7910  0.8702
0.4593009948730469
Epoch-1000 0.5668  0.6857  0.7883  0.8626
VGG_Attention(
  (features_0): Sequential(
    (0): Conv2d(3, 64, kernel_size=(3, 3), stride=(1, 1), padding=(1, 1))
    (1): BatchNorm2d(64, eps=1e-05, momentum=0.1, affine=True, track_running_stats=True)
    (2): ReLU(inplace)
    (3): Conv2d(64, 64, kernel_size=(3, 3), stride=(1, 1), padding=(1, 1))
    (4): BatchNorm2d(64, eps=1e-05, momentum=0.1, affine=True, track_running_stats=True)
    (5): ReLU(inplace)
    (6): MaxPool2d(kernel_size=2, stride=2, padding=0, dilation=1, ceil_mode=False)
    (7): Conv2d(64, 128, kernel_size=(3, 3), stride=(1, 1), padding=(1, 1))
    (8): BatchNorm2d(128, eps=1e-05, momentum=0.1, affine=True, track_running_stats=True)
    (9): ReLU(inplace)
    (10): Conv2d(128, 128, kernel_size=(3, 3), stride=(1, 1), padding=(1, 1))
    (11): BatchNorm2d(128, eps=1e-05, momentum=0.1, affine=True, track_running_stats=True)
    (12): ReLU(inplace)
    (13): MaxPool2d(kernel_size=2, stride=2, padding=0, dilation=1, ceil_mode=False)
    (14): Conv2d(128, 256, kernel_size=(3, 3), stride=(1, 1), padding=(1, 1))
    (15): BatchNorm2d(256, eps=1e-05, momentum=0.1, affine=True, track_running_stats=True)
    (16): ReLU(inplace)
    (17): Conv2d(256, 256, kernel_size=(3, 3), stride=(1, 1), padding=(1, 1))
    (18): BatchNorm2d(256, eps=1e-05, momentum=0.1, affine=True, track_running_stats=True)
    (19): ReLU(inplace)
    (20): Conv2d(256, 256, kernel_size=(3, 3), stride=(1, 1), padding=(1, 1))
    (21): BatchNorm2d(256, eps=1e-05, momentum=0.1, affine=True, track_running_stats=True)
    (22): ReLU(inplace)
    (23): MaxPool2d(kernel_size=2, stride=2, padding=0, dilation=1, ceil_mode=False)
    (24): Conv2d(256, 512, kernel_size=(3, 3), stride=(1, 1), padding=(1, 1))
    (25): BatchNorm2d(512, eps=1e-05, momentum=0.1, affine=True, track_running_stats=True)
    (26): ReLU(inplace)
  )
  (features_1): Sequential(
    (0): Conv2d(512, 512, kernel_size=(3, 3), stride=(1, 1), padding=(1, 1))
    (1): BatchNorm2d(512, eps=1e-05, momentum=0.1, affine=True, track_running_stats=True)
    (2): ReLU(inplace)
    (3): Conv2d(512, 512, kernel_size=(3, 3), stride=(1, 1), padding=(1, 1))
    (4): BatchNorm2d(512, eps=1e-05, momentum=0.1, affine=True, track_running_stats=True)
    (5): ReLU(inplace)
  )
  (features_2): Sequential(
    (0): MaxPool2d(kernel_size=2, stride=2, padding=0, dilation=1, ceil_mode=False)
    (1): Conv2d(512, 512, kernel_size=(3, 3), stride=(1, 1), padding=(1, 1))
    (2): BatchNorm2d(512, eps=1e-05, momentum=0.1, affine=True, track_running_stats=True)
    (3): ReLU(inplace)
    (4): Conv2d(512, 512, kernel_size=(3, 3), stride=(1, 1), padding=(1, 1))
    (5): BatchNorm2d(512, eps=1e-05, momentum=0.1, affine=True, track_running_stats=True)
    (6): ReLU(inplace)
    (7): Conv2d(512, 512, kernel_size=(3, 3), stride=(1, 1), padding=(1, 1))
    (8): BatchNorm2d(512, eps=1e-05, momentum=0.1, affine=True, track_running_stats=True)
    (9): ReLU(inplace)
    (10): MaxPool2d(kernel_size=2, stride=2, padding=0, dilation=1, ceil_mode=False)
    (11): MaxPool2d(kernel_size=7, stride=7, padding=0, dilation=1, ceil_mode=False)
  )
  (attention_blocks): ModuleList(
    (0): Conv2d(512, 512, kernel_size=(1, 1), stride=(1, 1))
    (1): Conv2d(512, 512, kernel_size=(1, 1), stride=(1, 1))
    (2): Conv2d(512, 512, kernel_size=(1, 1), stride=(1, 1))
    (3): Conv2d(512, 512, kernel_size=(1, 1), stride=(1, 1))
    (4): Conv2d(512, 512, kernel_size=(1, 1), stride=(1, 1))
    (5): Conv2d(512, 512, kernel_size=(1, 1), stride=(1, 1))
    (6): Conv2d(512, 512, kernel_size=(1, 1), stride=(1, 1))
    (7): Conv2d(512, 512, kernel_size=(1, 1), stride=(1, 1))
  )
  (Embedding): Sequential(
    (0): Dropout(p=0.01)
    (1): Linear(in_features=512, out_features=64, bias=True)
  )
)
torch.Size([64, 3, 3, 3])
torch.Size([64])
torch.Size([64])
torch.Size([64])
torch.Size([64])
torch.Size([64])
torch.Size([64, 64, 3, 3])
torch.Size([64])
torch.Size([64])
torch.Size([64])
torch.Size([64])
torch.Size([64])
torch.Size([128, 64, 3, 3])
torch.Size([128])
torch.Size([128])
torch.Size([128])
torch.Size([128])
torch.Size([128])
torch.Size([128, 128, 3, 3])
…
